streamlit_app/models/lstm_crowd_model.pth (torch, 208277 bytes, 10 tensors)

lstm.weight_ih_l0 f4 [256, 1]
0.08077079 0.06582069 0.088311404 0.029928068 0.15094878 0.050412152 0.15793733 0.033279452
0.13870263 0.19459063 0.1181024 0.009489843 0.09882572 0.0482388 -0.0044329 0.07252913
0.072219186 -0.0325392 0.0014048206 0.07437751 0.023767272 0.036365658 0.17726064 -0.019357713
0.11681507 -0.015177097 -0.026457338 0.062524565 0.10542386 0.18844168 0.0146911815 0.04856335
-0.07679947 0.033148658 0.07159466 -0.024491485 -0.009782784 0.041221485 0.07078568 -0.05783023
0.05865446 -0.04947342 0.11461303 -0.0002872184 -0.026769403 0.12216335 0.06895901 0.14034957
0.062332433 0.16738948 0.17682602 -0.023950081 0.04528756 -0.03923558 -0.05331481 -0.02717019
-0.032681998 -0.006171115 -0.044635825 0.11323882 -0.06819115 -0.034202293 0.10514123 0.050771516
0.16384925 0.04720432 0.060426816 0.1751871 0.040277246 0.11856018 -0.06387263 0.064528145
0.10384529 0.14016405 -0.056515064 0.032802146 0.09122907 0.11030644 0.16602857 0.15647715
-0.06686682 8.161971e-05 0.041493744 0.094860755 0.00086068286 0.079003744 0.045410536 0.097997375
0.16690849 0.09266576 0.17452917 -0.07109741 0.08779249 -0.008894959 0.052916832 0.101130225
0.13916902 0.09703234 0.13014944 -0.03789186 -0.08749723 0.016333109 0.11425312 -0.033333346
0.017245835 -0.006089907 -0.028475579 0.09593334 0.08477776 0.09586861 -0.027218215 -0.057885513
0.06928345 0.061990656 -0.019455776 -0.08035719 0.0011054118 -0.023660282 0.062170565 0.13209242
-0.07715809 -0.0034052534 0.19067079 0.13963693 -0.05623622 0.08245954 0.13668782 0.031422246
-0.007867847 0.04770166 0.12212595 -0.1480677 -0.07673071 0.13770346 0.15809272 0.051042393
0.0035766214 0.171629 -0.019581748 0.0068616522 0.0287549 -0.19173124 -0.15725821 0.06562936
-0.16964222 0.10828876 0.10542941 -0.153806 0.19436787 0.16375926 0.10504737 -0.103303246
-0.14087938 -0.1511507 0.123654366 0.16373019 0.09993035 -0.18909565 0.042629898 -0.029225238
-0.16550668 -0.089541696 -0.16122551 -0.10613394 0.089848 -0.11851834 0.09342219 0.000896755
0.034982655 -0.096278846 -0.009233411 -0.15095106 -0.06778853 -0.1650576 0.037807934 0.034090422
-0.12974827 0.188044 0.1847741 -0.15178394 -0.1473457 0.15252034 0.16624801 0.032268006
0.10221193 0.15928973 0.19952378 -0.112554364 -0.08095875 0.064525396 0.030438082 -0.16100654
0.07838711 0.123092994 -0.043432884 0.03391109 0.14536922 0.058997937 0.14973818 -0.04200437
0.05921587 0.14695942 0.17762356 0.14122824 0.007056887 -0.03502333 0.12023882 -0.014261336
0.04847629 -0.015761135 -0.047272917 0.17104557 0.03252294 0.123862624 0.16761331 -0.05247151
0.104431495 0.13216715 0.0024044914 0.17354622 0.060939755 0.17064476 0.083596304 0.10090242
-0.06832065 0.1740131 0.10279047 0.18655343 0.09799493 -0.08392393 0.15457687 0.018703558
0.14422464 -0.08083411 0.18648297 -0.04074138 -0.005957947 -0.024229037 -0.049165968 -0.06969836
0.13219921 0.011770713 0.20883131 -0.13951258 -0.044623546 0.020866925 -0.055544734 0.14883077
0.01931627 0.09032508 0.14073932 0.15066804 0.13907962 0.09826894 -0.04920228 0.16825138
00000000: 286b a53d ffcc 863d 9cdc b43d b52b f53c
00000010: 5192 1a3e f97c 4e3d 53ba 213e 0950 083d
00000020: 1008 0e3e c442 473e acdf f13d 497b 1b3c
00000030: 2465 ca3d 0c96 453d dc41 91bb 278a 943d
00000040: a7e7 933d d347 05bd f521 b83a 3c53 983d
00000050: 95b3 c23c 28f4 143d d083 353e 1194 9ebc
00000060: bd3c ef3d 5ca9 78bc 0fbd d8bc e10c 803d
00000070: 77e8 d73d dbf6 403e 48b3 703c 5dea 463d
00000080: 0a49 9dbd e3c6 073d 39a0 923d 5ea2 c8bc
00000090: f847 20bc dcd7 283d 15f8 903d 64df 6cbd
000000a0: a93f 703d a4a4 4abd 3cba ea3d cd95 96b9
000000b0: 824b dbbc c730 fa3d 623a 8d3d ccb7 0f3e
000000c0: 4b50 7f3d 2668 2b3e e111 353e f632 c4bc
000000d0: 737f 393d 7db5 20bd a160 5abd 0594 debc
000000e0: 8fdd 05bd 1137 cabb 0ed4 36bd c1e9 e73d
000000f0: cda7 8bbd b417 0cbd 4954 d73d cbf5 4f3d
00000100: 19c8 273e 5159 413d 1c82 773d 3f64 333e
00000110: c1f9 243d aecf f23d a7cf 82bd 5527 843d
00000120: d7ac d43d 2a87 0f3e 577c 67bd 8b5b 063d
00000130: 4fd6 ba3d 58e8 e13d 6503 2a3e 8c3b 203e
00000140: 79f1 88bd 402b ab38 58f5 293d 5b46 c23d
00000150: 739f 613a b7cc a13d 6600 3a3d d9b2 c83d
00000160: 0fea 2a3e 8cc7 bd3d c6b7 323e 859b 91bd
00000170: 8dcc b33d 2abc 11bc 52bf 583d 5d1d cf3d
00000180: 5382 0e3e e4b8 c63d e545 053e 7f34 1bbd
00000190: bf31 b3bd 03cd 853c 8afd e93d 8c88 08bd
000001a0: 2347 8d3c d88d c7bb 9e45 e9bc b378 c43d
000001b0: f69f ad3d c356 c43d bcf8 debc 5c19 6dbd
000001c0: 7be4 8d3d eae9 7d3d b861 9fbc 4f92 a4bd
000001d0: 77e3 903a 35d3 c1bc 90a6 7e3d 3c43 073e
000001e0: 1005 9ebd ac2a 5fbb 343f 433e fcfc 0e3e
000001f0: f357 66bd 8ce0 a83d e4f7 0b3e 9db4 003d
00000200: 24e8 00bc d162 433d 2c1d fa3d 0f9f 17be
00000210: fe24 9dbd 2302 0d3e 0fe3 213e d411 513d
00000220: c065 6a3b 83bf 2f3e e769 a0bc b6d7 e03b
00000230: 658f eb3c 3255 44be 4c08 21be b068 863d
00000240: b1b6 2dbe 7fc6 dd3d 60eb d73d 527f 1dbe
00000250: 5f08 473e 82b0 273e 1323 d73d a790 d3bd
00000260: af42 10be 40c7 1abe 803e fd3d e3a8 273e
00000270: 49a8 cc3d 4aa2 41be b09c 2e3d c469 efbc
00000280: 957a 29be a361 b7bd 4d18 25be c05c d9bd
00000290: 3a02 b83d beb9 f2bd 2254 bf3d 3614 6b3a
000002a0: f949 0f3d d82d c5bd bc47 17bc ea92 1abe
000002b0: b6d4 8abd dc04 29be 7edc 1a3d 66a2 0b3d
000002c0: bbdc 04be 9b8e 403e 6c35 3d3e 406d 1bbe
000002d0: cbe1 16be 4b2e 1c3e eb3c 2a3e 752b 043d
000002e0: 7d54 d13d d91c 233e f64f 4c3e e782 e6bd
000002f0: b3cd a5bd e425 843d 4959 f93c e6de 24be
00000300: 6c89 a03d 2e18 fc3d aee6 31bd 5be6 0a3d
00000310: abdb 143e d2a7 713d f754 193e c60c 2cbd
00000320: 578c 723d 887c 163e f3e2 353e 239e 103e
00000330: 753d e73b a074 0fbd c53f f63d 61a8 69bc
00000340: 138f 463d 7f1d 81bc 3fa1 41bd 9226 2f3e
00000350: c636 053d b0ab fd3d d3a2 2b3e 5eec 56bd
00000360: 2ee0 d53d d356 073e ac94 1d3b 1ab6 313e
00000370: f79b 793d 80bd 2e3e 8a34 ab3d eea5 ce3d
00000380: b2eb 8bbd 7d30 323e cf83 d23d dd07 3f3e
00000390: 91b1 c83d 4fe0 abbd 6649 1e3e 3438 993c
000003a0: a0af 133e 5b8c a5bd 64f5 3e3e 6fe0 26bd
000003b0: e23a c3bb f97b c6bc 4162 49bd 04be 8ebd
000003c0: 3b5f 073e f3d9 403c e0d7 553e 63dc 0ebe
000003d0: 2ec7 36bd 1df1 aa3c e082 63bd 1867 183e
000003e0: 273d 9e3c 5bfc b83d f81d 103e b948 1a3e
000003f0: e36a 0e3e 3a41 c93d 5488 49bd 174a 2c3e

lstm.weight_hh_l0 f4 [256, 64]
-0.07127437 0.13385543 0.061127365 0.038334746 -0.12628601 -0.09583883 0.13841797 0.0845331
0.054159805 -0.048435643 -0.121422544 -0.10163456 0.0434552 -0.09218706 -0.10301261 0.045483284
-0.096508026 0.058519267 0.07461342 -0.022901762 0.09088801 -0.05391712 0.040740985 -0.10142308
-0.13253708 -0.051931184 0.12192092 -0.07515352 -0.016392536 -0.010399193 -0.03501464 0.005396903
0.079625554 -0.098392695 0.004552991 0.030864429 0.043409083 -0.020231718 -0.0076867123 0.0856857
-0.069401264 0.028515343 -0.08653629 -0.14276005 0.0021493617 -0.12382447 -0.09447028 -0.054006185
-0.02427357 -0.08484309 0.006409777 0.07625808 -0.0079500405 -0.08757676 0.12804598 -0.030700997
-0.07875399 0.07181902 0.014794353 -0.045848124 -0.1206996 0.01358492 -0.093859755 0.029399933
-0.030058285 -0.08413112 -0.0421291 -0.016390886 -0.08818112 0.020645525 0.101782046 0.025865732
0.04320929 0.020367237 -0.026228124 -0.12703092 -0.01668382 0.064215496 -0.0708971 0.011485304
0.12550294 -0.100779764 0.010416022 0.018291127 0.014553907 -0.08209114 0.059880216 -0.025172781
-0.11139152 0.03120492 -0.1260648 -0.08891407 0.00921339 -0.039023332 -0.03594247 0.0756735
0.033735458 -0.0958095 -0.01415396 -0.088851124 -0.0050736363 -0.11255231 -0.021338625 0.04944049
0.031576276 -0.10644444 -0.08702255 0.0696627 -0.022882126 0.04978003 -0.06155326 0.12008449
0.034082703 -0.078030474 0.0026673723 0.015737748 -0.01208136 -0.06554512 0.09007663 0.114615075
-0.035640884 0.07040837 0.11469648 0.017019644 0.089414604 -0.037668966 0.0454344 0.08351271
0.13308977 -0.09921234 0.11342233 -0.09128843 -0.03391558 0.107991844 0.02488163 0.018209955
-0.11457667 0.15076232 0.06970501 -0.04086016 0.08124997 -0.011344596 0.056269396 0.1247298
-0.13484848 -0.11708695 -0.01224732 -0.115765154 0.02676883 0.047708154 0.034511447 -0.10486289
-0.13366777 0.02617145 -0.07378896 0.053421937 0.11339109 -0.033653505 0.049216807 0.04242781
-0.055660326 -0.024475947 0.07457137 -0.11590163 0.14721943 0.03740229 0.06271782 0.030920679
-0.058367193 0.02599145 0.016912663 -0.022658257 -0.108214244 -0.12753686 -0.12068122 0.05712146
-0.15596072 0.042614423 0.040609263 0.0415793 -0.032307208 -0.0045283292 0.13430718 0.02335367
-0.0887553 0.08332081 0.080241 0.006463074 0.05480308 0.10226717 -0.0141119445 0.059618264
-0.008091657 -0.0027417864 0.1402472 0.09828622 -0.050220717 0.034213696 0.059555568 -0.07052511
0.06392552 -0.06453051 -0.010702346 0.08220725 0.07066813 0.061316762 -0.13175988 0.02626485
-0.042209502 -0.055698425 0.04465917 0.08614755 0.11474831 -0.10162709 -0.0009812785 0.058170117
0.04975119 -0.049238272 0.08436691 0.11132165 0.0011599128 -0.020707004 0.051655386 -0.045775637
-0.074164644 0.065441005 -0.09573499 -0.1301782 0.0755375 0.035177223 0.10872732 -0.11023612
0.04102929 -0.06288932 -0.08610492 -0.12092205 0.01949227 -0.06128133 -0.07749597 0.037274152
0.070668906 -0.008634056 0.097652175 0.032888103 -0.06379764 0.06985682 0.08586081 -0.07833242
-0.061856445 0.057488225 -0.023737825 0.06774018 0.049637504 0.012894805 0.099675395 0.020870697
00000000: 4cf8 91bd 6611 093e b060 7a3d e504 1d3d
00000010: 1f51 01be 2647 c4bd 71bd 0d3e b11f ad3d
00000020: acd6 5d3d 7464 46bd 62ac f8bd c825 d0bd
00000030: 14fe 313d 92cc bcbd 46f8 d2bd ae4c 3a3d
00000040: 00a6 c5bd e6b1 6f3d ecce 983d 7a9c bbbc
00000050: 7e23 ba3d 33d8 5cbd 05e0 263d e7b6 cfbd
00000060: cdb7 07be cbb5 54bd adb1 f93d 17ea 99bd
00000070: a449 86bc 6061 2abc 836b 0fbd 81d8 b03b
00000080: b912 a33d 1c82 c9bd 4231 953b 66d7 fc3c
00000090: b9cd 313d fdbc a5bc d1e0 fbbb fc7b af3d
000000a0: 4022 8ebd 0299 e93c f039 b1bd b12f 12be
000000b0: 4edc 0c3b af97 fdbd a279 c1bd 9735 5dbd
000000c0: 5ed9 c6bc 37c2 adbd 1b09 d23b 322d 9c3d
000000d0: e340 02bc 725b b3bd 7c1e 033e a880 fbbc
000000e0: c649 a1bd da15 933d 0464 723c 3ecb 3bbd
000000f0: 5a31 f7bd 4993 5e3c 8b39 c0bd 21d8 f03c
00000100: cb3c f6bc f04c acbd 908f 2cbd 2e46 86bc
00000110: 4e98 b4bd ce20 a93c 1b73 d03d 5fe4 d33c
00000120: 39fc 303d 31d9 a63c 5ddc d6bc 6514 02be
00000130: 82ac 88bc 6a83 833d 8032 91bd db2c 3c3c
00000140: d883 003e 9f65 cebd f6a7 2a3c 46d7 953c
00000150: 8373 6e3c 661f a8bd f544 753d 2637 cebc
00000160: 3d21 e4bd 76a1 ff3c 2217 01be 9418 b6bd
00000170: c2f3 163c eed6 1fbd 6938 13bd b5fa 9a3d
00000180: 312e 0a3d c537 c4bd 03e6 67bc 94f7 b5bd
00000190: bf40 a6bb d381 e6bd 57ce aebc 1c82 4a3d
000001a0: 2056 013d 8bff d9bd e138 b2bd 51ab 8e3d
000001b0: 4c73 bbbc 25e6 4b3d 451f 7cbd dbee f53d
000001c0: 4e9a 0b3d 71ce 9fbd 15cf 2e3b 73ec 803c
000001d0: e6f0 45bc 853c 86bd 197a b83d 4fbb ea3d
000001e0: 2dfc 11bd 4332 903d fde5 ea3d c86c 8b3c
000001f0: 011f b73d c64a 1abd 6c19 3a3d b608 ab3d
00000200: af48 083e d72f cbbd f749 e83d 6ef5 babd
00000210: 10eb 0abd d42a dd3d 8fd4 cb3c 0b2d 953c
00000220: 2ca7 eabd 7061 1a3e 80c1 8e3d fc5c 27bd
00000230: 6266 a63d afde 39bc bd7a 663d 5672 ff3d
00000240: b815 0abe 48cb efbd fca8 48bc 4816 edbd
00000250: 4e4a db3c a069 433d e05b 0d3d 5bc2 d6bd
00000260: 34e0 08be 8265 d63c ab1e 97bd f6d0 5a3d
00000270: 9639 e83d 42d8 09bd 9097 493d c9c8 2d3d
00000280: 15fc 63bd c881 c8bc e0b8 983d d55d edbd
00000290: b1c0 163e 2533 193d 3372 803d 5d4d fd3c
000002a0: 7012 6fbd 05ec d43c 6d8c 8a3c cf9d b9bc
000002b0: 6e9f ddbd 0699 02be b727 f7bd 31f8 693d
000002c0: 2bb4 1fbe 768c 2e3d e655 263d 0e4f 2a3d
000002d0: 9054 04bd 6162 94bb d287 093e 3250 bf3c
000002e0: 57c5 b5bd 1aa4 aa3d 6555 a43d 32c8 d33b
000002f0: 3279 603d 7371 d13d c935 67bc 4832 743d
00000300: df92 04bc 8baf 33bb f69c 0f3e 494a c93d
00000310: 3db4 4dbd a923 0c3d 8af0 733d 786f 90bd
00000320: 62eb 823d 9228 84bd e558 2fbc 465c a83d
00000330: 74ba 903d 4927 7b3d 10ec 06be 6229 d73c
00000340: dfe3 2cbd 0824 64bd 89ec 363d 206e b03d
00000350: 2901 eb3d dd21 d0bd 3e9e 80ba ca43 6e3d
00000360: e7c7 4b3d 12ae 49bd 8fc8 ac3d 9bfc e33d
00000370: 3708 983a bca1 a9bc 9994 533d 3c7f 3bbd
00000380: a2e3 97bd ef05 863d b510 c4bd 6f4d 05be
00000390: 68b3 9a3d fe15 103d 6eac de3d 7ac3 e1bd
000003a0: 540e 283d 1ecc 80bd c757 b0bd fba5 f7bd
000003b0: 41ae 9f3c 2202 7bbd 35b6 9ebd c8ac 183d
000003c0: dcba 903d db75 0dbc ddfd c73d adb5 063d
000003d0: 56a8 82bd 1811 8f3d cbd7 af3d bf6c a0bd
000003e0: 2f5d 7dbd c678 6b3d d475 c2bc 5dbb 8a3d
000003f0: b250 4b3d bb44 533c 9d22 cc3d 06f9 aa3c

lstm.bias_ih_l0 f4 [256]
0.07034775 -0.079802245 -0.032772303 -0.05757459 0.12570147 0.047368236 0.115205474 0.0847874
0.04331497 -0.06804972 0.0019891134 -0.09562999 0.030255023 -0.033175632 0.12730302 -0.062325522
-0.1004953 -0.006000751 0.10955684 0.12363223 0.036268968 0.12169095 0.06313921 0.037140623
-0.023457864 -0.04668414 0.121654965 0.08779148 0.005642049 0.11473418 0.034911774 -0.10654743
0.08610685 -0.06789987 0.13038571 0.063647434 0.043300126 -0.08902433 0.026568033 -0.004057191
0.03395016 0.04562587 0.05241372 0.054639082 0.02339536 0.034657586 0.089888014 0.12139261
-0.06999636 -0.05545086 0.023525255 -0.060127202 -0.061957303 0.057564825 0.0423894 -0.109143436
-0.022131832 0.10395355 0.1257571 -0.087145336 0.01431987 -0.008368882 0.085500844 -0.057199087
0.037661918 -0.037419703 0.048211474 0.009299643 0.028723413 0.0019700436 0.09868172 0.015898792
0.11320367 -0.035492703 -0.021745976 0.08153604 0.04592677 0.00987131 0.024302442 0.10045168
-0.10978928 -0.073667325 -0.091128565 0.030675642 0.025582207 0.022462465 -0.033994284 -0.04223322
-0.070764564 -0.06596721 -0.0265655 0.101217315 -0.081794135 -0.023716396 0.06060636 0.046698514
0.056757662 -0.11716684 -0.05603232 0.06617133 -0.021627948 -0.061263334 0.03511019 0.04553303
-0.006997579 0.12416529 0.0071757403 -0.103652015 -0.0069138235 -0.11508053 0.123144664 0.036816347
0.027869117 0.088980384 0.14581645 0.07520971 0.06752603 0.048636526 -0.11709296 0.0006299274
-0.12913263 -0.10389844 -0.052215848 0.034915123 -0.09457696 0.021446282 -0.0031463918 0.13686657
-0.06501457 0.04663595 -0.051099572 -0.00081339816 -0.10425748 0.038709 0.097704254 0.025916796
-0.11885189 0.054635897 -0.043182194 0.11391996 0.055189982 -0.07224164 -0.08063884 0.13070834
-0.08611743 -0.08480079 -0.07053667 -0.026123716 0.109920196 -0.022107277 0.06660446 0.06800915
0.028753662 -0.03719648 0.039588407 -0.07516093 0.04930766 -0.0009060588 -0.04880061 -0.07903865
-0.08298173 -0.115984425 -0.032983914 -0.120181724 -0.019853437 0.023735512 -0.06293201 -0.057523984
-0.037134368 0.059573684 0.070910566 -0.015319551 0.03444316 0.11176522 -0.025102174 0.03384387
0.04457855 0.018810038 -0.10867687 0.040413033 -0.10602978 -0.05611559 0.060517527 0.034559052
-0.026805177 0.0088427 -0.06524759 -0.031900275 -0.092150636 -0.032512546 -0.034035075 0.008231253
-0.024272831 -0.0072286283 0.14572911 -0.039580226 0.059171926 0.07600674 0.07590375 0.11308872
-0.0691215 0.14327486 -0.06296517 -0.009322352 -0.061249636 -0.08471175 0.07003792 0.05473525
-0.11141122 -0.08429989 0.11950204 0.003540461 0.14317468 0.11982829 0.03681325 0.11317139
0.11247165 0.01605234 0.12130323 -0.06697609 -0.13592052 0.011833575 0.10328789 0.023826526
0.035336617 0.037600126 0.11216233 -0.10595593 -0.016499914 0.02271945 0.039190557 -0.06873335
0.099299125 -0.09536162 -0.060330093 -0.03985931 -0.017743478 0.13177559 0.008629197 -0.07983955
-0.061954863 0.094882935 0.063796915 0.07154962 0.0037867585 0.07385446 -0.09910103 0.097264476
-0.018466823 0.109688535 0.04033731 0.057134192 0.06239083 0.002327799 0.017776042 -0.03629718
00000000: 7b12 903d 5c6f a3bd 403c 06bd 55d3 6bbd
00000010: e3b7 003e 3205 423d d9f0 eb3d 04a5 ad3d
00000020: 0a6b 313d a75d 8bbd c95b 023b a8d9 c3bd
00000030: 62d9 f73c 2ce3 07bd b95b 023e 0c49 7fbd
00000040: 7bd0 cdbd f3a1 c4bb 565f e03d e532 fd3d
00000050: c58e 143d 1b39 f93d 214f 813d c420 183d
00000060: b52a c0bc de37 3fbd 3d26 f93d 05cc b33d
00000070: f0e0 b83b c1f9 ea3d a6ff 0e3d 8a35 dabd
00000080: ca58 b03d 160f 8bbd d583 053e 9659 823d
00000090: 795b 313d 6352 b6bd 34a5 d93c 2ff2 84bb
000000a0: 530f 0b3d 31e2 3a3d c5af 563d 3bcd 5f3d
000000b0: a0a7 bf3c 1df5 0d3d 3517 b83d b09c f83d
000000c0: 405a 8fbd 7120 63bd 09b8 c03c f147 76bd
000000d0: f1c6 7dbd 18c9 6b3d 82a0 2d3d 9886 dfbd
000000e0: d14d b5bc 99e5 d43d 78c6 003e 4179 b2bd
000000f0: e39d 6a3c a31d 09bc 111b af3d 9749 6abd
00000100: 6243 1a3d 6745 19bd 6579 453d 885d 183c
00000110: 5d4d eb3c d91b 013b a419 ca3d 2f3e 823c
00000120: 53d7 e73d cc60 11bd 9e24 b2bc 5efc a63d
00000130: b51d 3c3d 46bb 213c ea15 c73c 9cb9 cd3d
00000140: 34d9 e0bd e5de 96bd 9da1 babd 7c4b fb3c
00000150: c791 d13c 3403 b83c 973d 0bbd befc 2cbd
00000160: 03ed 90bd d119 87bd e49f d9bc 064b cf3d
00000170: af83 a7bd e348 c2bc 603e 783d f146 3f3d
00000180: b97a 683d 2bf5 efbd 2582 65bd d684 873d
00000190: 182d b1bc 43ef 7abd b4cf 0f3d d880 3a3d
000001a0: f24b e5bb 5f4a fe3d 7922 eb3b 8247 d4bd
000001b0: 5b8d e2bb 57af ebbd 4533 fc3d bdcc 163d
000001c0: c64d e43c 593b b63d e850 153e 8c07 9a3d
000001d0: 164b 8a3d 1837 473d 6fce efbd b621 253a
000001e0: 583b 04be b5c8 d4bd 49e0 55bd 2903 0f3d
000001f0: 91b1 c1bd 1db0 af3c b233 4ebb c026 0c3e
00000200: 5c26 85bd 5705 3f3d c94d 51bd 3a3a 55ba
00000210: f284 d5bd 548d 1e3d 2b19 c83d 764f d43c
00000220: 9f68 f3bd e4c9 5f3d d0df 30bd de4e e93d
00000230: e40e 623d 6df3 93bd fa25 a5bd 68d8 053e
00000240: 565e b0bd 09ac adbd 8875 90bd 6701 d6bc
00000250: d71d e13d 521a b5bc eb67 883d 6248 8b3d
00000260: cd8c eb3c 565b 18bd 7427 223d f9ed 99bd
00000270: d4f6 493d 9484 6dba 26e3 47bd 04df a1bd
00000280: 53f2 a9bd 3e89 edbd 241a 07bd d621 f6bd
00000290: ada3 a2bc fa70 c23c 7fe2 80bd 459e 6bbd
000002a0: 351a 18bd 8903 743d 8f39 913d dbfe 7abc
000002b0: 4514 0d3d 2ae5 e43d 13a3 cdbc df9f 0a3d
000002c0: ff97 363d 8217 9a3c fb91 debd 2388 253d
000002d0: 2426 d9bd 76d9 65bd 3ae1 773d cb8d 0d3d
000002e0: 8896 dbbc f9e0 103c 87a0 85bd dda9 02bd
000002f0: 79b9 bcbd e02b 05bd 5d68 0bbd 61dc 063c
00000300: d1d7 c6bc 21de ecbb 033a 153e e01e 22bd
00000310: 435e 723d 6ca9 9b3d 6d73 9b3d 0f9b e73d
00000320: 938f 8dbd a5b6 123e e2f3 80bd c7bc 18bc
00000330: e6e0 7abd 5b7d adbd 0a70 8f3d 1232 603d
00000340: 912b e4bd 6ca5 acbd 7cbd f43d 1407 683b
00000350: 629c 123e 8968 f53d 7ec9 163d 67c6 e73d
00000360: 8957 e63d 3280 833c d46d f83d c32a 89bd
00000370: c02e 0bbe 9ce1 413c 9a88 d33d d92f c33c
00000380: 21bd 103d 9702 1a3d 5db5 e53d 6cff d8bd
00000390: d42a 87bc 241e ba3c 4786 203d 12c4 8cbd
000003a0: 575d cb3d f44c c3bd b01c 77bd 8443 23bd
000003b0: c55a 91bc 2ef0 063e 7a61 0d3c eb82 a3bd
000003c0: 62c4 7dbd fc51 c23d f5a7 823d 9b88 923d
000003d0: 442b 783b 0241 973d 7bf5 cabd 9932 c73d
000003e0: bc47 97bc 62a4 e03d bc38 253d 8b05 6a3d
000003f0: 878d 7f3d fd8d 183b 109f 913c 5aac 14bd

lstm.bias_hh_l0 f4 [256]
0.02983722 -0.018815856 -0.036636792 -0.042608947 0.09296267 -0.06766479 0.06344735 0.10277651
0.06868992 0.00024639082 -0.010746404 -0.04258529 -0.009385072 0.10580669 0.07322124 -0.016532933
0.034921423 0.14299461 0.11972496 -0.01911705 -0.005039862 0.13655886 0.09400482 0.10936011
0.13307695 -0.06559445 0.11757066 -0.08967845 -0.119649425 -0.004563003 0.050131414 -0.018389478
0.010178416 0.003548524 -0.027184188 0.08117656 0.071177535 -0.078232445 0.11590485 -0.055148117
-0.018416516 0.09193991 -0.09911471 0.02080705 -0.036034737 0.14717041 0.058147103 0.049068302
-0.092340544 -0.06550389 0.105245024 -0.027985794 -0.025358187 -0.064416125 -0.04724543 -0.04322612
-0.059195183 0.022905886 0.121739194 0.04490617 0.024412846 0.078410886 0.018554978 0.0013030744
0.035094637 -0.096984275 0.0074701575 -0.079494156 -0.084968016 0.020123387 -0.032280523 0.02952377
0.0347461 -0.03426392 -0.083232164 -0.013738452 0.007466417 0.11592335 -0.048931725 0.12013713
0.012487233 -0.099146 0.060879048 0.118676 -0.03763308 0.10824393 0.07883773 0.11029501
0.08477513 -0.09702987 -0.016995115 0.070656836 -0.053873744 0.016939867 0.113145076 0.09083526
0.024873786 0.07380832 0.0036342847 -0.07850593 -0.11894313 -0.110217884 -0.06640544 -0.012053658
0.03492698 -0.08736815 -0.087618835 -0.09630627 0.051219232 0.124420136 0.038093887 0.120724574
-0.04395994 -0.04752024 0.012458154 -0.0832086 -0.029491713 -0.07708047 -0.05917761 -0.029773844
-0.04960956 -0.07096258 0.14278732 0.06266155 -0.0739935 -0.027629834 -0.026582882 0.13097276
0.11811337 -0.037957236 0.08856576 -0.0957749 0.10439059 -0.11204992 -0.03158598 -0.007059064
0.020592162 -0.09053411 -0.01961359 0.074244335 0.10428757 0.117477275 0.0025509845 -0.024117796
-0.09415048 -0.13512938 0.05824221 -0.009581109 0.032305945 -0.024160044 -0.017937751 -0.08461488
-0.0904606 -0.06231149 0.03698061 0.10121835 0.06544136 -0.03949982 0.09566362 0.009178606
0.000994321 -0.09719538 -0.103659056 0.095199496 -0.04196293 -0.09815143 0.081291445 -0.041464467
0.021585084 -0.09353159 0.05460232 0.051834565 0.011563401 -0.086356625 -0.075802006 -0.103638284
-0.07398776 -0.06647638 0.074829265 0.059338037 -0.0130197 0.119675346 -0.01877796 0.123638555
-0.06509221 0.061741203 0.097678825 -0.08343147 0.052056946 0.01063045 -0.12429557 -0.010454916
0.0782274 0.06479287 0.054163594 -0.07264709 0.08251314 0.015521791 0.08036932 0.023007862
-0.10706603 0.12280418 -0.055966277 0.114616774 0.114521824 0.07976028 -0.046941362 0.06794177
0.02147616 -0.027383927 0.012822739 -0.017366914 -0.02008906 -0.015591685 0.10869178 -0.03129743
0.05394073 0.024016637 0.13316968 -0.1088328 -0.068288065 0.14786664 -0.039144333 0.06897443
-0.0864441 -0.026670372 -0.06546483 0.09819926 0.0825153 -0.07209955 0.12950933 0.023332128
-0.051956188 -0.030944733 0.11508621 -0.028892461 0.010617567 0.018780949 0.007879322 -0.10589461
-0.005140741 0.0042937 -0.049223825 -0.05737624 0.022844499 -0.09695675 0.07443199 -0.10463699
-0.12504448 0.1472527 0.117768824 -0.05653222 0.013696173 -0.10648 0.08581944 -0.012511447
00000000: 306d f43c b623 9abc 7610 16bd b886 2ebd
00000010: 3663 be3d d693 8abd aff0 813d 7e7c d23d
00000020: 4dad 8c3d 042e 8139 af11 30bc ea6d 2ebd
00000030: d8c3 19bc 2eb1 d83d 04f5 953d 1370 87bc
00000040: c409 0f3d 2e6d 123e 5c32 f53d 5c9b 9cbc
00000050: 6d25 a5bb 16d6 0b3e 9985 c03d 31f8 df3d
00000060: 5345 083e 6256 86bd e3c8 f03d 56a9 b7bd
00000070: c20a f5bd 3e85 95bb 9956 4d3d 88a5 96bc
00000080: 5fc3 263c 5b8e 683b 60b1 debc e53f a63d
00000090: 87c5 913d 5538 a0bd 865f ed3d fee2 61bd
000000a0: 3cde 96bc fe4a bc3d a7fc cabd 8c73 aa3c
000000b0: 2999 13bd d7b3 163e a82b 6e3d d8fb 483d
000000c0: 0a1d bdbd e726 86bd b48a d73d 7742 e5bc
000000d0: f9bb cfbc 9aec 83bd 6d84 41bd df0d 31bd
000000e0: a676 72bd 20a5 bb3c 6652 f93d 88ef 373d
000000f0: 73fd c73c e395 a03d 9c00 983c eccb aa3a
00000100: 65bf 0f3d b19f c6bd 39c8 f43b d5cd a2bd
00000110: b603 aebd cdd9 a43c 9538 04bd d5db f13c
00000120: ed51 0e3d 5358 0cbd a075 aabd 3f17 61bc
00000130: d8a8 f43b 3969 ed3d a26c 48bd 750a f63d
00000140: 4097 4c3c 0f0d cbbd 4f5c 793d 670c f33d
00000150: 2525 1abd feae dd3d ad75 a13d 5ae2 e13d
00000160: 959e ad3d 99b7 c6bd 5739 8bbc 88b4 903d
00000170: b7aa 5cbd 7ac5 8a3c 9bb8 e73d d607 ba3d
00000180: 1cc4 cb3c d128 973d 2e2d 6e3b b8c7 a0bd
00000190: 7598 f3bd eab9 e1bd 93ff 87bd b57c 45bc
000001a0: 980f 0f3d 13ee b2bd 8171 b3bd 393c c5bd
000001b0: 42cb 513d fccf fe3d 5608 1c3d 723e f73d
000001c0: 570f 34bd 95a4 42bd 491d 4c3c 4569 aabd
000001d0: 9b98 f1bc 5edc 9dbd 3964 72bd 47e8 f3bc
000001e0: 6533 4bbd d454 91bd d736 123e b354 803d
000001f0: e789 97bd f657 e2bc 58c4 d9bc b91d 063e
00000200: 6ce5 f13d 0c79 1bbd f761 b53d a125 c4bd
00000210: bcca d53d 6e7a e5bd 4d60 01bd b94f e7bb
00000220: e5b0 a83c f369 b9bd aeac a0bc 6a0d 983d
00000230: b994 d53d ed97 f03d 6b2e 273b af92 c5bc
00000240: f8d1 c0bd 5b5f 0abe 628f 6e3d 15fa 1cbc
00000250: 3d53 043d 49eb c5bc 31f2 92bc 914a adbd
00000260: 6843 b9bd 553a 7fbd fb78 173d 914b cf3d
00000270: 1f06 863d 90ca 21bd 4aeb c33d dd61 163c
00000280: e053 823a 5f0e c7bd 334b d4bd f4f7 c23d
00000290: 52e1 2bbd 9e03 c9bd 217c a63d a5d6 29bd
000002a0: 34d3 b03c 7e8d bfbd afa6 5f3d 7b50 543d
000002b0: 6b74 3d3c bedb b0bd 153e 9bbd 4f40 d4bd
000002c0: e586 97bd c524 88bd 1640 993d 710c 733d
000002d0: 9450 55bc 5918 f53d 3dd4 99bc 3636 fd3d
000002e0: 114f 85bd 58e4 7c3d d60b c83d 1ede aabd
000002f0: aa39 553d 572b 2e3c ad8e febd 194b 2bbc
00000300: b035 a03d 20b2 843d a5da 5d3d ffc7 94bd
00000310: a6fc a83d 1c4f 7e3c ac98 a43d fc7a bc3c
00000320: 6f45 dbbd c280 fb3d e53c 65bd 33bc ea3d
00000330: 6b8a ea3d 5c59 a33d 9645 40bd 0e25 8b3d
00000340: c6ee af3c 4254 e0bc 7716 523c 0f45 8ebc
00000350: d091 a4bc 4474 7fbc cc99 de3d bc31 00bd
00000360: f4f0 5c3d 8abe c43c a25d 083e bbe3 debd
00000370: 9dda 8bbd 5a6a 173e cf55 20bd 7742 8d3d
00000380: 9b09 b1bd d37b dabc 6d12 86bd b21c c93d
00000390: c8fd a83d eea8 93bd 189e 043e 0523 bf3c
000003a0: 03d0 54bd cf7f fdbc 52b2 eb3d e2af ecbc
000003b0: 4ef5 2d3c 81da 993c 4618 013c 46df d8bd
000003c0: a973 a8bb 2bb2 8c3b ec9e 49bd 5903 6bbd
000003d0: 6324 bb3c 4391 c6bd cd6f 983d eb4b d6bd
000003e0: a90b 00be 69c9 163e c830 f13d 548e 67bd
000003f0: ea65 603c 3012 dabd 1ac2 af3d d0fc 4cbc

lstm.weight_ih_l1 f4 [256, 64]
0.08781292 -0.025340343 0.09793965 0.06702247 -0.17211173 0.13949966 0.15750828 -0.07418985
-0.10719567 -0.010215631 0.10002331 0.07059014 -0.019326359 -0.03697446 -0.05253263 0.020547505
-0.14098535 0.10457701 0.069333345 -0.013532179 0.058309134 0.027965756 -0.041444667 -0.08635657
0.019835161 -0.07961363 0.1445252 0.062686116 0.14162809 -0.06547882 0.006251416 0.0100022815
-0.08334119 0.037557833 -0.068551905 0.057422843 0.03136856 -0.00792435 -0.010084086 -0.13187133
-0.104214154 -0.06377931 -0.100981064 -0.03269431 -0.13930596 -0.078180835 -0.02500878 0.037039235
-0.12960915 0.16803047 0.012473409 -0.129153 0.06426694 -0.07737213 -0.052909218 -0.071529604
-0.022266647 0.03473996 0.03485783 -0.10595946 -0.060622808 0.034087036 0.10258871 -0.09668096
0.110504456 0.023437226 0.05994208 -0.024792114 -0.11166286 0.05514499 0.12522443 -0.008302914
0.051129095 0.048304543 0.051629324 0.032181855 -0.05549428 -0.09656127 -0.048481405 -0.05256074
-0.09885628 0.045481216 0.12391174 -0.14585556 0.10271072 0.046629544 0.07303134 -0.07766024
-0.08397078 -0.0754819 -0.030114977 0.14453317 -0.011193665 -0.11658795 -0.087449566 -0.04978662
0.011282315 -0.09759322 -0.039960284 -0.116024315 0.10195134 -0.120777145 0.107282266 -0.058919393
-0.006093719 -0.0813951 0.07286554 0.012773702 0.030294068 -0.032539006 0.058491174 -0.063590206
0.03467708 0.075159125 -0.06988517 -0.1227978 -0.036690865 -0.004299023 0.041081786 -0.032458857
-0.010999004 0.11362059 -0.044005707 -0.04980203 -0.11275765 0.02178021 0.059148252 -0.13673744
0.11265933 0.13568911 0.056993093 0.036464043 -0.020227794 0.01707531 -0.0293389 -0.039330006
0.10433685 0.020010762 0.015352794 0.09856122 0.009931281 0.0046609524 0.033314228 0.09867899
-0.0044825077 0.109630376 0.079779506 -0.1380714 -0.0066779037 0.13366227 0.063816205 -0.10138801
0.030662375 -0.09118833 0.0378738 -0.055162027 0.030827926 -0.069850065 -0.024225123 0.011317205
-0.09788845 0.07644456 -0.07131746 -0.09755365 0.15033546 0.031888098 0.1169479 -0.044107046
0.02015435 -0.16431406 -0.0027748297 -0.0065406044 0.06888379 -0.19952181 0.044057366 -0.12578166
-0.008749425 0.08449845 0.16333075 0.004623075 0.037465803 0.089803144 -0.0018279975 0.05292106
0.028436007 0.14285275 0.03147645 0.018262584 -0.13282806 -0.040036213 -0.123642 0.040539622
0.047931492 0.042412814 0.111958764 -0.1277675 -0.12715454 -0.014170085 0.11592504 0.049126524
0.049025856 0.0009262574 -0.00597918 -0.094890244 0.13100775 -0.15321614 -0.15037091 -0.055212263
-0.01800805 0.03126383 -0.08549446 -0.09579699 0.1413932 0.14269504 0.086284235 -0.027418407
-0.005496886 -0.124871016 -0.05904497 0.0935837 -0.03095077 0.03205254 -0.01151559 -0.076294586
-0.13950555 -0.013564158 -0.12900452 -0.07636209 -0.028146353 0.07695519 0.020426206 -0.11370527
0.11529623 0.03495872 -0.08085699 -0.12987123 0.034997556 -0.1702108 -0.019176682 -0.077027105
0.07881472 -0.057563644 -0.004691529 0.04456502 -0.06004675 0.08020392 0.048329834 0.09862179
0.012515423 0.04909843 0.058011495 -0.033194356 0.04654144 0.060140487 -0.09780383 -0.005686127
00000000: 43d7 b33d 8d96 cfbc 9594 c83d 1443 893d
00000010: 0f3e 30be 00d9 0e3e da49 213e d9f0 97bd
00000020: 6789 dbbd 765f 27bc 05d9 cc3d 9091 903d
00000030: 5052 9ebc 8872 17bd 742c 57bd 3e53 a83c
00000040: 775e 10be 792c d63d a4fe 8d3d 13b6 5dbc
00000050: 8fd5 6e3d 7118 e53c e2c1 29bd b7db b0bd
00000060: 597d a23c 790c a3bd 6afe 133e 9461 803d
00000070: f406 113e c219 86bd aed8 cc3b 9ce0 233c
00000080: c9ae aabd 3ed6 193d f164 8cbd 3734 6b3d
00000090: 527c 003d 22d5 01bc b937 25bc 4709 07be
000000a0: 3b6e d5bd ba9e 82bd 29cf cebd 78ea 05bd
000000b0: 39a6 0ebe 461d a0bd 37df ccbc 74b6 173d
000000c0: 43b8 04be 2e10 2c3e 455d 4c3c af40 04be
000000d0: 639e 833d 4775 9ebd 56b7 58bd 1d7e 92bd
000000e0: 8b68 b6bc 7d4b 0e3d 15c7 0e3d 4601 d9bd
000000f0: 9f4f 78bd d99e 0b3d 081a d23d ab00 c6bd
00000100: 2950 e23d 6dff bf3c d485 753d d518 cbbc
00000110: 7faf e4bd b7df 613d d53a 003e f208 08bc
00000120: be6c 513d fcda 453d 4579 533d 1fd1 033d
00000130: f84d 63bd eac1 c5bd 7094 46bd ee49 57bd
00000140: 2975 cabd 834a 3a3d 70c5 fd3d 295b 15be
00000150: ff59 d23d 9ffe 3e3d 7591 953d 550c 9fbd
00000160: dff8 abbd 4196 9abd afb3 f6bc 8100 143e
00000170: a265 37bc aac5 eebd c218 b3bd 0eed 4bbd
00000180: 75d9 383c f4de c7bd 65ad 23bd 289e edbd
00000190: ddcb d03d 025a f7bd ceb6 db3d 7655 71bd
000001a0: d2ad c7bb 79b2 a6bd 873a 953d ca48 513c
000001b0: 442b f83c 9f47 05bd 7194 6f3d 953b 82bd
000001c0: 8e09 0e3d 07ed 993d f51f 8fbd 6a7d fbbd
000001d0: 2949 16bd d2de 8cbb 6045 283d 94f3 04bd
000001e0: 2b35 34bc e9b1 e83d 543f 34bd 37fd 4bbd
000001f0: 7ced e6bd 696c b23c 7045 723d e604 0cbe
00000200: efb9 e63d 16f2 0a3e 9771 693d 525b 153d
00000210: c2b4 a5bc 85e1 8b3c 2258 f0bc 8018 21bd
00000220: 8fae d53d 9ced a33c 498a 7b3c 77da c93d
00000230: d0b6 223c e7ba 983b 8074 083d 3618 ca3d
00000240: 00e2 92bb e485 e03d 7063 a33d 9762 0dbe
00000250: 51d2 dabb c3de 083e 12b2 823d 84a4 cfbd
00000260: a92f fb3c f2c0 babd 8f21 1b3d 94f1 61bd
00000270: d98a fc3c 8d0d 8fbd c473 c6bc cc6b 393c
00000280: bd79 c8bd f78e 9c3d e30e 92bd 35ca c7bd
00000290: 8af1 193e 189d 023d 6182 ef3d 97a9 34bd
000002a0: bc1a a53c f241 28be ebd9 35bb 9152 d6bb
000002b0: f212 8d3d 724f 4cbe 7f75 343d e8cc 00be
000002c0: c059 0fbc 860d ad3d 2d40 273e 2a7d 973b
000002d0: be75 193d b6ea b73d 6b99 efba c1c3 583d
000002e0: a1f2 e83c fe47 123e 73ed 003d 6a9b 953c
000002f0: 1404 08be 03fd 23bd 0438 fdbd e00c 263d
00000300: d053 443d 0fb9 2d3d a34a e53d 7cd5 02be
00000310: cd34 02be a529 68bc 1b6a ed3d e538 493d
00000320: 56cf 483d 15d0 723a ffec c3bb d155 c2bd
00000330: e526 063e b1e4 1cbe d5fa 19be 4126 62bd
00000340: 9e85 93bc 800e 003d b817 afbd 3631 c4bd
00000350: 61c9 103e a61e 123e cab5 b03d 919c e0bc
00000360: 391f b4bb 60bc ffbd 23d9 71bd d0a8 bf3d
00000370: 788c fdbc 8649 033d e3ab 3cbc 5640 9cbd
00000380: 8bda 0ebe 343c 5ebc c319 04be ba63 9cbd
00000390: 2e93 e6bc af9a 9d3d dc54 a73c 4fde e8bd
000003a0: 6e20 ec3d e030 0f3d 5998 a5bd f7fc 04be
000003b0: 9959 0f3d bd4b 2ebe 6b18 9dbc 63c0 9dbd
000003c0: 9d69 a13d dbc7 6bbd 66bb 99bb cf89 363d
000003d0: 95f3 75bd f441 a43d 81f5 453d 39fa c93d
000003e0: 7d0d 4d3c 6f1b 493d 769d 6d3d cef6 07bd
000003f0: 3da2 3e3d df55 763d 604d c8bd b152 babb

lstm.weight_hh_l1 f4 [256, 64]
0.045177963 0.10217144 0.03933571 -0.09315818 0.11900529 -0.02856084 -0.07434836 0.068437055
0.045899246 -0.032729443 0.0800621 0.035653535 0.11696429 -0.111830294 0.0820902 0.10919545
-0.0805266 -0.0011597907 -0.06845164 -0.1414359 0.02955038 -0.028382437 0.024368305 0.0049524354
-0.0054441383 0.06478183 -0.06381749 -0.103328876 0.10642271 -0.013298576 0.10366163 0.01784054
-0.029464506 0.023883747 -0.03682297 0.046126526 0.07483772 -0.047868844 -0.046192486 -0.049696054
0.13492966 -0.089374825 -0.007943052 0.0972273 0.08931119 0.09796218 -0.07392437 0.08650494
-0.037165917 -0.04445378 0.12276722 -0.016494049 -0.0245771 0.07693536 0.07703916 -0.033103727
0.103418134 -0.07556916 -0.02714741 -0.007803563 0.08696072 0.08880504 0.09759374 0.09717742
0.022941934 0.068457454 -0.038813993 -0.086283065 0.078330964 -0.031563744 -0.025240885 -0.11730604
-0.031375192 -0.11296384 -0.0032638744 0.0561782 -0.031183746 -0.038954496 -0.026051614 -0.05282069
-0.038141053 -0.105922595 0.004227478 0.03402013 0.067433804 0.053919945 0.09484221 -0.0783139
-0.040566966 -0.0882778 0.06429883 0.042229947 0.12994397 -0.057957146 -0.11851249 -0.06862651
0.017878938 -0.111611165 0.019080771 -0.0851932 -0.044547345 0.10534102 -0.050101187 0.022641009
-0.11628394 0.08689766 0.06060205 -0.10102171 -0.0904071 -0.12686379 -0.031303465 -0.04099838
0.1109957 -0.045862585 -0.08675356 0.015660014 0.102266535 -0.05235892 0.10698856 0.0020683834
-0.039493207 0.06166833 -0.052041363 -0.07348888 0.022314517 -0.027368737 0.0021586572 -0.023249766
0.0063545057 0.05351771 0.13062468 -0.030836208 -0.017736683 0.056782275 -0.07085274 -0.013003216
-0.0018170988 -0.080106206 0.05175413 -0.11634971 0.045636203 0.115177795 0.12875141 0.113211244
-0.08630459 -0.0729847 0.07261284 -0.002698484 0.050516292 0.07277382 -0.110104956 -0.102708034
0.1008414 0.1021953 -0.11437136 -0.06433144 0.114742324 0.010445987 -0.009944731 -0.037290953
-0.050885156 0.060129028 0.09415087 0.06352375 0.033060163 -0.10263469 -0.0063533047 0.10596984
-0.05026811 0.05389289 0.03866268 0.09624864 0.1305883 0.06743406 0.08297106 0.10320413
-0.13425748 0.05068402 -0.029610801 0.09534742 0.12647176 0.0027948015 -0.087874 -0.066299856
-0.06250423 0.006164578 -0.045546237 -0.11118704 -0.080778554 -0.05010664 -0.0067541385 -0.07411366
0.09286682 -0.029540822 -0.026136385 -0.11633568 0.14062923 0.02780508 0.012137971 -0.09317067
0.047870524 -0.0029557317 0.06915385 -0.011981091 -0.030343207 0.057999134 -0.071254425 0.056967705
0.07390584 0.08066087 0.013974969 0.012568984 0.12154725 0.14608105 -0.11631316 -0.041464627
-0.03633461 -0.04671505 0.04122743 -0.00044951326 -0.081324115 -0.034157433 -0.011489841 0.098463565
-0.08597196 -0.09342891 0.03240098 0.1234503 -0.07628387 0.085159086 0.108614795 0.066454664
-0.0019353505 0.05629507 -0.094352804 0.090371065 -0.075359635 0.05633648 0.059198007 0.0983145
0.08715431 0.006792274 0.026138553 -0.0878021 0.08838719 -0.040006083 0.10580304 -0.011622669
-0.032067306 0.017554374 0.025870327 -0.07589182 -0.0012208401 0.12763923 0.06895985 0.08318947
00000000: 870c 393d 433f d13d 7b1e 213d b7c9 bebd
00000010: 0cb9 f33d 6cf8 e9bc f443 98bd ba28 8c3d
00000020: d900 3c3d 4f0f 06bd 99f7 a33d 7109 123d
00000030: f98a ef3d 4807 e5bd e81e a83d dda1 df3d
00000040: 21eb a4bd 1e04 98ba 6030 8cbd 93d4 10be
00000050: a313 f23c 4982 e8bc 0aa0 c73c 0a48 a23b
00000060: be64 b2bb 56ac 843d bfb2 82bd 179e d3bd
00000070: 26f4 d93d 45e2 59bc 8c4c d43d 5326 923c
00000080: 8c5f f1bc d9a7 c33c afd3 16bd 2bef 3c3d
00000090: 8544 993d 1f12 44bd 5534 3dbd 178e 4bbd
000000a0: 002b 0a3e 260a b7bd 9323 02bc 1b1f c73d
000000b0: c9e8 b63d 65a0 c83d a965 97bd 8129 b13d
000000c0: 4a3b 18bd 2b15 36bd 616d fb3d 871e 87bc
000000d0: ea55 c9bc 4990 9d3d b5c6 9d3d c697 07bd
000000e0: e3cc d33d 01c4 9abd 3f64 debc 08b5 ffbb
000000f0: 7618 b23d 6bdf b53d 3adf c73d f504 c73d
00000100: b9f0 bb3c 6c33 8c3d 6cfb 1ebd 2db5 b0bd
00000110: fc6b a03d fc48 01bd f9c5 cebc 263e f0bd
00000120: 4683 00bd 9659 e7bd bae6 55bb 1d1b 663d
00000130: 0e75 ffbc c08e 1fbd 326a d5bc 825a 58bd
00000140: cb39 1cbd f2ed d8bd a886 8a3b b158 0b3d
00000150: bc1a 8a3d 29db 5c3d a23c c23d 0a63 a0bd
00000160: 8c29 26bd feca b4bd 1baf 833d 4ff9 2c3d
00000170: 0810 053e 7964 6dbd adb6 f2bd 0e8c 8cbd
00000180: da76 923c 6594 e4bd 474f 9c3c c679 aebd
00000190: 4777 36bd 08bd d73d e736 4dbd a379 b93c
000001a0: 4626 eebd 66f7 b13d db39 783d 78e4 cebd
000001b0: 5c27 b9bd 95e8 01be 1038 00bd ebed 27bd
000001c0: b751 e33d 68da 3bbd daab b1bd 6e49 803c
000001d0: 1e71 d13d 4f76 56bd d11c db3d b78d 073b
000001e0: a1c3 21bd ee97 7c3d 5329 55bd 5781 96bd
000001f0: efcc b63c 6734 e0bc 4278 0d3b 4b76 bebc
00000200: 7539 d03b 6335 5b3d 7ac2 053e 379c fcbc
00000210: 854c 91bc 8894 683d 3e1b 91bd 710b 55bc
00000220: b82b eeba b90e a4bd 23fc 533d c248 eebd
00000230: 07ed 3a3d 56e2 eb3d 69d7 033e 4cdb e73d
00000240: 76c0 b0bd 0179 95bd 0ab6 943d 0dd9 30bb
00000250: 2cea 4e3d 710a 953d b57e e1bd 9758 d2bd
00000260: f085 ce3d c54b d13d 883b eabd 34c0 83bd
00000270: 06fe ea3d a525 2b3c 3aef 22bc 66be 18bd
00000280: f46c 50bd db49 763d 2cd2 c03d bd18 823d
00000290: 186a 073d 2332 d2bd 622f d0bb b706 d93d
000002a0: efe5 4dbd cbbe 5c3d c25c 1e3d 021e c53d
000002b0: f0b8 053e de1a 8a3d bbec a93d b05c d33d
000002c0: cb7a 09be 0c9a 4f3d 5a92 f2bc 8245 c33d
000002d0: d081 013e fd28 373b 49f7 b3bd 38c8 87bd
000002e0: 3802 80bd 3a00 ca3b b18e 3abd 08b6 e3bd
000002f0: 3a6f a5bd 9f3c 4dbd d251 ddbb e7c8 97bd
00000300: f630 be3d 98ff f1bc f91b d6bc 6741 eebd
00000310: 1c01 103e 7bc7 e33c 57de 463c 44d0 bebd
00000320: e213 443d f3b4 41bb 89a0 8d3d 574c 44bc
00000330: 5192 f8bc 8090 6d3d d7ed 91bd f856 693d
00000340: f25b 973d 8731 a53d 45f7 643c 24ee 4d3c
00000350: c4ed f83d 4596 153e 9835 eebd d0d6 29bd
00000360: 9ad3 14bd 4858 3fbd 18de 283d a6ac ebb9
00000370: 428d a6bd aae8 0bbd e33f 3cbc 44a7 c93d
00000380: 1112 b0bd a857 bfbd e4b6 043d 83d3 fc3d
00000390: b83a 9cbd e367 ae3d 6f71 de3d 6219 883d
000003a0: 96ab fdba a995 663d 0b3c c1bd 7714 b93d
000003b0: 2756 9abd 15c1 663d 9c79 723d 1d59 c93d
000003c0: f57d b23d b991 de3b 8520 d63c 96d1 b3bd
000003d0: 5804 b53d 6bdd 23bd 44af d83d 026d 3ebc
000003e0: 0259 03bd 31ce 8f3c 02ee d33c 2c6d 9bbd
000003f0: 9904 a0ba dcb3 023e d23a 8d3d 3e5f aa3d

lstm.bias_ih_l1 f4 [256]
0.0011566787 0.039135855 -0.08805874 0.06449789 0.012271572 -0.012923896 0.07115539 0.061675232
0.0017176181 -0.087662876 0.025386335 -0.06873994 0.08894272 0.0064457683 -0.10637657 0.112587236
-0.04512413 0.0020363808 -0.020965667 -0.02465834 0.06573536 -0.019664159 -0.05844753 -0.12538119
0.075636275 0.09004087 0.021074386 -0.10780847 -0.05571346 -0.022112504 0.06310033 0.091689475
-0.033907644 -0.0653675 -0.10423196 -0.012066248 -0.03561383 -0.109467216 -0.10056424 -0.11217146
0.06712924 -0.033200935 -0.10591478 -0.06792866 -0.050532695 -0.037383553 -0.040627126 0.01771377
-0.08998492 0.011146621 0.09127079 0.079975545 -0.06790668 0.034053475 0.092373125 -0.04727548
0.07467267 -0.0045145834 0.050318327 -0.077265464 0.04307428 0.1442614 -0.058704037 -0.026576852
-0.10716339 0.11773304 0.10746842 0.021024786 0.0026568805 0.13129541 -0.00849377 0.098377064
0.10664009 0.07952988 -0.054837678 -0.11593097 -0.10147403 0.101110436 0.12690225 -0.01704585
-0.06640587 -0.045538828 -0.12601173 -0.00876899 -0.050550535 -0.0011294009 -0.014269814 -0.10632062
-0.03180493 -0.09598382 -0.087480195 0.0068577398 0.061657876 -0.01983194 0.028667558 -0.054011744
0.032116793 -0.10626909 0.039012257 -0.10644967 0.07970651 0.02926654 -0.06975233 0.04625831
0.09701594 0.11941762 0.08408495 0.09961323 0.079257496 -0.020850947 0.02059719 -0.055742197
0.100389995 -0.14473166 0.068826504 0.05471426 0.109872594 -0.09679515 -0.08716137 0.024235291
-0.08272393 0.06646228 0.07900932 -0.039509825 -0.092368424 0.0030997265 -0.052868165 0.09439737
-0.03430683 0.113743596 0.056926273 -0.012623608 -0.038382858 0.043490816 0.016825452 -0.029105533
-0.0834017 -0.024638187 -0.061331514 -0.07886842 0.043602094 -0.0064388807 0.083442025 0.08467124
0.049103837 0.02708807 0.051557615 -0.063798696 0.10331978 0.1259621 0.03808395 -0.028993808
0.007172428 0.047450084 0.054414768 0.0163019 0.06882408 0.03447789 -0.076119184 -0.049069326
-0.024849769 -0.011652549 0.043154884 0.12661533 0.07287379 0.08711309 0.09112936 -0.082993545
0.05742302 0.06258584 -0.046045847 0.092151545 0.015426699 -0.029256653 -0.05096792 0.10940637
-0.123729676 -0.043022554 0.01614005 -5.547418e-05 0.052921858 0.10088146 -0.10600132 0.07909976
-0.13933004 -0.1006181 0.009137219 0.08346838 0.013152282 -0.005765372 0.006940528 0.0365438
-0.08946975 0.01359051 0.048581872 -0.052532755 0.03695322 -0.09440059 -0.12287611 0.0937454
0.100341044 0.08243623 0.113455124 -0.04944902 0.04807487 -0.005276066 0.10823636 -0.01955994
-0.11223065 -0.08107852 0.042123433 0.048555616 0.12736143 0.04195149 0.069501705 -0.08172009
-0.051914565 -0.02078114 -0.08388069 0.0789114 -0.029017942 -0.051517334 0.07509294 0.10499025
0.12150077 0.1135795 -0.037698176 0.0109573975 -0.07805719 -0.037733465 0.09022344 0.021713957
0.10793991 -0.039386697 0.07326913 -0.065523535 0.024463713 0.043756474 -0.054845612 0.04586309
-0.111549444 0.0022707426 -0.12685542 0.08927791 0.069318816 -0.053824484 0.09463852 -0.019860351
-0.071568824 0.03171815 0.06647892 0.07100056 -0.116263196 0.06199655 0.035055608 0.13305485
00000000: b29b 973a eb4c 203d 2458 b4bd 7817 843d
00000010: b40e 493c c0be 53bc ebb9 913d 2b9f 7c3d
00000020: b321 e13a 9888 b3bd 01f7 cf3c 87c7 8cbd
00000030: 9a27 b63d 0637 d33b f6db d9bd 2394 e63d
00000040: 14d4 38bd cd74 053b 31c0 abbc 4900 cabc
00000050: 43a0 863d bb16 a1bc ad66 6fbd ed63 00be
00000060: 31e7 9a3d 5967 b83d 31a4 ac3c b0ca dcbd
00000070: cc33 64bd 4825 b5bc bf3a 813d b1c7 bb3d
00000080: bee2 0abd 65df 85bd 9177 d5bd 83b1 45bc
00000090: cfdf 11bd 5930 e0bd a0f4 cdbd 27ba e5bd
000000a0: 0e7b 893d b4fd 07bd d9e9 d8bd 2e1e 8bbd
000000b0: 5ffb 4ebd 7f1f 19bd a168 26bd 781c 913c
000000c0: 044a b8bd 51a0 363c 2eec ba3d 38ca a33d
000000d0: a812 8bbd a87b 0b3d 1f2e bd3d efa3 41bd
000000e0: fced 983d 12ef 93bb 971a 4e3d 5b3d 9ebd
000000f0: a86e 303d 43b9 133e a573 70bd b3b7 d9bc
00000100: 7b78 dbbd 051e f13d 6718 dc3d 2c3c ac3c
00000110: 0f1f 2e3b 4e72 063e 7429 0bbc ea79 c93d
00000120: 1f66 da3d 90e0 a23d 799d 60bd 376d edbd
00000130: 9ed1 cfbd fd12 cf3d aaf2 013e bda3 8bbc
00000140: cdff 87bd ec86 3abd 3809 01be cfab 0fbc
00000150: 140e 4fbd 6808 94ba f0cb 69bc a0be d9bd
00000160: e345 02bd 2a93 c4bd d128 b3bd e4b6 e03b
00000170: f88c 7c3d 9876 a2bc 3ad8 ea3c 6b3b 5dbd
00000180: e68c 033d 9ca3 d9bd 51cb 1f3d 4902 dabd
00000190: 2b3d a33d 62c0 ef3c 4fda 8ebd 5b79 3d3d
000001a0: 4bb0 c63d 3a91 f43d bb34 ac3d 0502 cc3d
000001b0: c151 a23d 9bcf aabc 70bb a83c ee51 64bd
000001c0: 4599 cd3d 8934 14be e9f4 8c3d 0f1c 603d
000001d0: e204 e13d 893c c6bd a981 b2bd 1789 c63c
000001e0: 2a6b a9bd 601d 883d a3cf a13d 0ed5 21bd
000001f0: a82b bdbd c824 4b3b 4a8c 58bd 6953 c13d
00000200: 5285 0cbd 67f2 e83d 862b 693d 40d3 4ebc
00000210: 5837 1dbd 6d23 323d 88d5 893c ba6e eebc
00000220: 83ce aabd 06d6 c9bc c136 7bbd c485 a1bd
00000230: 1c98 323d 3ffd d2bb a7e3 aa3d 1d68 ad3d
00000240: 1b21 493d cde7 dd3c 142e 533d e4a8 82bd
00000250: 5299 d33d 35fc 003e eafd 1b3d 6c84 edbc
00000260: b006 eb3b 055b 423d 05e2 5e3d 908b 853c
00000270: a4f3 8c3d b038 0d3d 60e4 9bbd ebfc 48bd
00000280: be91 cbbc 55ea 3ebc 2dc3 303d 73a7 013e
00000290: db3e 953d 5968 b23d 08a2 ba3d 85f8 a9bd
000002a0: 6734 6b3d 012d 803d 929a 3cbd f3b9 bc3d
000002b0: 44c0 7c3c a6ab efbc bdc3 50bd 7210 e03d
000002c0: fc65 fdbd 6b38 30bd 2338 843c f2ac 68b8
000002d0: 97c4 583d f09a ce3d 3817 d9bd 0eff a13d
000002e0: 89ac 0ebe dd10 cebd 46b4 153c 78f1 aa3d
000002f0: ab7c 573c 72eb bcbb 5e6d e33b f4ae 153d
00000300: eb3b b7bd bbaa 5e3c c9fd 463d 962c 57bd
00000310: 425c 173d 1955 c1bd 78a6 fbbd 97fd bf3d
00000320: 9b7f cd3d 53d4 a83d 295b e83d 0e8b 4abd
00000330: 28ea 443d d9e2 acbb 06ab dd3d 2b3c a0bc
00000340: 2fd9 e5bd 7f0c a6bd 9f89 2c3d 41e2 463d
00000350: 096b 023e 53d5 2b3d e956 8e3d dd5c a7bd
00000360: 5ea4 54bd 363d aabc a4c9 abbd 4d9c a13d
00000370: 09b7 edbc d703 53bd 54ca 993d 2105 d73d
00000380: 65d5 f83d 5e9c e83d 6769 1abd a886 333c
00000390: 73dc 9fbd 688e 1abd 11c7 b83d 78e1 b13c
000003a0: 990f dd3d f253 21bd 200e 963d 3431 86bd
000003b0: 2068 c83c fd39 333d cba5 60bd efda 3b3d
000003c0: 0974 e4bd bdd0 143b 63e6 01be 56d7 b63d
000003d0: 06f7 8d3d 1077 5cbd d7d1 c13d 2db2 a2bc
000003e0: ad92 92bd e4ea 013d 1a26 883d be68 913d
000003f0: 661b eebd 18f0 7d3d 7896 0f3d 883f 083e

lstm.bias_hh_l1 f4 [256]
0.019893989 0.06779951 -0.100760505 0.09704865 0.057193868 -0.023576053 0.0032638023 0.017095672
-0.10716672 0.098123625 -0.07794722 -0.12065344 -0.0452334 0.016018813 0.01652118 -0.1195987
-0.06505083 0.06210421 0.048365794 0.12695178 -0.059954863 0.118331194 0.11622538 0.018999048
0.081543565 -0.017925382 -0.012295453 0.00895469 -0.025441356 -0.08859518 -0.06918972 -0.03482406
0.08950572 0.10989354 9.595179e-05 -0.045304395 0.0095326975 0.01798139 -0.058873273 0.10778902
0.10655818 0.12622543 0.052473765 0.090514585 -0.024901662 0.06676915 -0.05106304 -0.055194803
0.13479388 -0.013907611 -0.11315242 -0.0939669 0.085602276 0.0683228 -0.000107523054 0.0061190715
0.091192044 -0.042501267 0.067962 -0.04081065 -0.024622079 -0.088570505 0.07549908 -0.039668426
-0.1005195 -0.10377234 -0.012447107 0.09377621 0.09292927 0.011103909 0.04697013 0.09211552
0.045619752 0.0043326565 0.10871709 -0.036899805 -0.110567056 -0.06772075 0.07174902 0.059827697
0.08279793 0.1306973 0.03704887 -0.047967684 0.008213677 0.10303 0.0171871 -0.040989418
-0.06947478 0.054354265 -0.09193737 -0.010864106 -0.11726525 0.06302091 0.0996409 0.027767574
-0.02187466 -0.030192766 -0.10130621 -0.0076781167 -0.016294144 -0.07398955 -0.09965759 -0.09395933
0.03137254 -0.06276418 0.11098175 -0.03951651 -0.08701519 0.09659545 -0.018745275 -0.03991913
-0.02609457 0.015885683 0.06901253 0.032307092 0.009563474 -0.081303485 0.11693113 0.05232946
-0.0025517438 -0.11384994 0.07384857 0.08969753 -0.08816437 0.01852519 0.061718415 0.09667746
0.030899435 0.09285662 0.08851766 0.003043666 0.075838655 0.10942419 0.09370335 0.08861296
-0.01412078 0.051049996 -0.098316886 0.04214552 -0.035616733 0.033510044 -0.018270522 0.02541676
0.00542223 0.06613905 0.064651966 0.0074270675 0.09689684 -0.10129309 -0.024915297 0.052244816
-0.033350155 0.07343656 -0.103682764 0.12058695 -0.00453593 0.080133505 -0.065190546 0.031394657
0.12650391 0.06337904 -0.011869509 -0.004269343 0.11121692 -0.093748145 -0.05450302 0.05440233
-0.01713526 0.037368644 -0.05760751 -0.046652865 0.117702566 -0.004366704 -0.09615522 -0.09745823
0.017382953 -0.03657381 -0.10446177 -0.009831352 -0.016764732 -0.06036434 0.126933 0.092141
0.09699312 -0.04296221 0.06619681 -0.04068558 -0.08200055 0.05525272 0.07169675 0.01198969
0.0184957 0.033686597 -0.03997998 0.019090876 0.1201549 0.06557022 0.042982176 0.09312293
-0.14045377 0.08380694 -0.06505059 -0.07529084 0.05631988 0.054716885 0.041141342 -0.11453918
0.11287352 -0.070289776 -0.089882635 -0.055970505 0.10116567 -0.09360466 -0.12837067 0.0049485327
0.055986788 0.13127473 0.029167634 0.04118873 0.0103566265 -0.015929509 0.07831378 0.06256261
-0.016601058 -0.10155906 -0.015225701 0.009165757 0.11317619 -0.063745774 0.07509322 -0.0063241604
0.07701365 -0.09084943 -0.1107808 0.008582422 0.096166626 0.06705941 -0.082246505 -0.022188606
0.061897367 -0.108394876 -0.06797395 0.018087976 -0.028484365 -0.10430102 0.111728646 0.08088242
-0.029849226 0.053158637 0.09285025 0.10857873 0.06667424 -0.051782724 -0.033709183 -0.072851434
00000000: b8f8 a23c 78da 8a3d 865b cebd 71c1 c63d
00000010: 1e44 6a3d 9122 c1bc 84e5 553b 390c 8c3c
00000020: 3a7a dbbd 0af5 c83d cba2 9fbd 2719 f7bd
00000030: a846 39bd e339 833c 6d57 873c 2af0 f4bd
00000040: 5f39 85bd fc60 7e3d 361b 463d a6ff 013e
00000050: 3b93 75bd a057 f23d 9207 ee3d e4a3 9b3c
00000060: 5000 a73d 40d8 92bc de72 49bc b1b6 123c
00000070: 646a d0bc 6471 b5bd 57b3 8dbd aca3 0ebd
00000080: c64e b73d dd0f e13d ba39 c938 1a91 39bd
00000090: 082f 1c3c b54d 933c 1a25 71bd 7dc0 dc3d
000000a0: 2d3b da3d 3d41 013e bbee 563d b65f b93d
000000b0: 92fe cbbc 44be 883d 7a27 51bd f213 62bd
000000c0: 6807 0a3e c0dc 63bc 75bc e7bd b871 c0bd
000000d0: 3f50 af3d d3ec 8b3d 007e e1b8 7e82 c83b
000000e0: e5c2 ba3d cf15 2ebd a92f 8b3d 1129 27bd
000000f0: 3eb4 c9bc 7464 b5bd 439f 9a3d 5c7b 22bd
00000100: 2bdd cdbd 9886 d4bd f3ee 4bbc be0d c03d
00000110: b351 be3d 2ced 353c c063 403d 10a7 bc3d
00000120: c7db 3a3d f5f8 8d3b 11a7 de3d 4024 17bd
00000130: fb70 e2bd 2db1 8abd 26f1 923d e30d 753d
00000140: f691 a93d 83d5 053e 8ec0 173d c379 44bd
00000150: a992 063c 6501 d33d f6cb 8c3c 85e4 27bd
00000160: cb48 8ebd 94a2 5e3d a949 bcbd 5dff 31bc
00000170: c328 f0bd 1b11 813d 8710 cc3d d378 e33c
00000180: 7d32 b3bc d256 f7bc a179 cfbd b698 fbbb
00000190: 4c7b 85bc d587 97bd 4719 ccbd c06d c0bd
000001a0: 7e80 003d 828a 80bd 664a e33d 10dc 21bd
000001b0: 0535 b2bd d6d3 c53d b18f 99bc 3e82 23bd
000001c0: 48c4 d5bc b122 823c 7156 8d3d 7154 043d
000001d0: 1eb0 1c3c 7182 a6bd 9779 ef3d 6a57 563d
000001e0: 283b 27bb 282a e9bd eb3d 973d 57b3 b73d
000001f0: 858f b4bd 24c2 973c 73cc 7c3d d5fe c53d
00000200: d020 fd3c 9d2b be3d bf48 b53d 3e78 473b
00000210: 4c51 9b3d ca19 e03d 8be7 bf3d b67a b53d
00000220: d85a 67bc cd19 513d 5d5a c9bd c8a0 2c3d
00000230: dae2 11bd d441 093d 10ac 95bc cf36 d03c
00000240: f6ac b13b e973 873d 4068 843d c25e f33b
00000250: da71 c63d c072 cfbd 2a1b ccbc a9fe 553d
00000260: 2c9a 08bd e865 963d a157 d4bd 4af6 f63d
00000270: 24a2 94bb 091d a43d 9f82 85bd af97 003d
00000280: 3e8a 013e dfcc 813d 5478 42bc d8e5 8bbb
00000290: b2c5 e33d 07ff bfbd 8f3e 5fbd fad4 5e3d
000002a0: 3f5f 8cbc dd0f 193d daf5 6bbd 1317 3fbd
000002b0: 0b0e f13d 9116 8fbb 07ed c4bd 2e98 c7bd
000002c0: b266 8e3c 6bce 15bd 0df0 d5bd ae13 21bc
000002d0: 3156 89bc 9940 77bd b9fa 013e 6cb4 bc3d
000002e0: 54a4 c63d 24f9 2fbd 3192 873d eca5 26bd
000002f0: e8ef a7bd ad50 623d bfd5 923d 6870 443c
00000300: 4b84 973c f5fa 093d 0cc2 23bd 7864 9c3c
00000310: c613 f63d ae49 863d 140e 303d 3cb7 be3d
00000320: 1dd3 0fbe f9a2 ab3d 3e39 85bd 1532 9abd
00000330: adaf 663d d01e 603d d383 283d 8593 eabd
00000340: 3b2a e73d 16f4 8fbd 6314 b8bd 5441 65bd
00000350: f22f cf3d cdb3 bfbd 9a73 03be 4d27 a23b
00000360: 6752 653d e26c 063e f6f0 ee3c 84b5 283d
00000370: d7ae 293c 9a7e 82bc fa62 a03d d320 803d
00000380: f1fe 87bc 32fe cfbd 3875 79bc f92b 163c
00000390: ebc8 e73d 258d 82bd 79ca 993d e73a cfbb
000003a0: 55b9 9d3d 440f babd 0be1 e2bd 499d 0c3c
000003b0: 02f3 c43d 7256 893d db70 a8bd e1c4 b5bc
000003c0: 1888 7d3d 22fe ddbd ed35 8bbd 3c2d 943c
000003d0: 0b58 e9bc c69b d5bd fdd1 e43d afa5 a53d
000003e0: 5d86 f4bc dfbc 593d 4628 be3d 865e de3d
000003f0: 818c 883d 1f1a 54bd a412 0abd 2233 95bd
